#loc = loc("/projects/weilab/liupeng/banis/torchinductor_liupen/y2/cy2ornnwzmyacetwxurroq6r3nvapvrabnt3adhvsnxt6oia4tqu.py":18:0)
module {
  tt.func public @triton_(%arg0: !tt.ptr<f16> {tt.divisibility = 16 : i32} loc("/projects/weilab/liupeng/banis/torchinductor_liupen/y2/cy2ornnwzmyacetwxurroq6r3nvapvrabnt3adhvsnxt6oia4tqu.py":18:0), %arg1: !tt.ptr<f16> {tt.divisibility = 16 : i32} loc("/projects/weilab/liupeng/banis/torchinductor_liupen/y2/cy2ornnwzmyacetwxurroq6r3nvapvrabnt3adhvsnxt6oia4tqu.py":18:0), %arg2: !tt.ptr<f32> {tt.divisibility = 16 : i32} loc("/projects/weilab/liupeng/banis/torchinductor_liupen/y2/cy2ornnwzmyacetwxurroq6r3nvapvrabnt3adhvsnxt6oia4tqu.py":18:0), %arg3: i32 {tt.divisibility = 16 : i32} loc("/projects/weilab/liupeng/banis/torchinductor_liupen/y2/cy2ornnwzmyacetwxurroq6r3nvapvrabnt3adhvsnxt6oia4tqu.py":18:0)) attributes {noinline = false} {
    %cst = arith.constant dense<2097152> : tensor<1024xi32> loc(#loc1)
    %c1024_i32 = arith.constant 1024 : i32 loc(#loc1)
    %0 = tt.get_program_id x : i32 loc(#loc2)
    %1 = arith.muli %0, %c1024_i32 : i32 loc(#loc3)
    %2 = tt.make_range {end = 1024 : i32, start = 0 : i32} : tensor<1024xi32> loc(#loc4)
    %3 = tt.splat %1 : i32 -> tensor<1024xi32> loc(#loc5)
    %4 = arith.addi %3, %2 : tensor<1024xi32> loc(#loc5)
    %5 = arith.divsi %4, %cst : tensor<1024xi32> loc(#loc6)
    %6 = tt.splat %arg0 : !tt.ptr<f16> -> tensor<1024x!tt.ptr<f16>> loc(#loc7)
    %7 = tt.addptr %6, %4 : tensor<1024x!tt.ptr<f16>>, tensor<1024xi32> loc(#loc7)
    %8 = tt.load %7 : tensor<1024x!tt.ptr<f16>> loc(#loc8)
    %9 = arith.extf %8 : tensor<1024xf16> to tensor<1024xf32> loc(#loc9)
    %10 = tt.splat %arg1 : !tt.ptr<f16> -> tensor<1024x!tt.ptr<f16>> loc(#loc10)
    %11 = tt.addptr %10, %4 : tensor<1024x!tt.ptr<f16>>, tensor<1024xi32> loc(#loc10)
    %12 = tt.load %11 : tensor<1024x!tt.ptr<f16>> loc(#loc11)
    %13 = arith.extf %12 : tensor<1024xf16> to tensor<1024xf32> loc(#loc12)
    %14 = tt.splat %arg2 : !tt.ptr<f32> -> tensor<1024x!tt.ptr<f32>> loc(#loc13)
    %15 = tt.addptr %14, %5 : tensor<1024x!tt.ptr<f32>>, tensor<1024xi32> loc(#loc13)
    %16 = tt.load %15 evictionPolicy = evict_last : tensor<1024x!tt.ptr<f32>> loc(#loc14)
    %17 = arith.addf %13, %16 : tensor<1024xf32> loc(#loc15)
    %18 = arith.addf %9, %17 : tensor<1024xf32> loc(#loc16)
    %19 = arith.truncf %18 : tensor<1024xf32> to tensor<1024xf16> loc(#loc17)
    tt.store %7, %19 : tensor<1024x!tt.ptr<f16>> loc(#loc17)
    tt.return loc(#loc18)
  } loc(#loc)
} loc(#loc)
#loc1 = loc(unknown)
#loc2 = loc("/projects/weilab/liupeng/banis/torchinductor_liupen/y2/cy2ornnwzmyacetwxurroq6r3nvapvrabnt3adhvsnxt6oia4tqu.py":20:28)
#loc3 = loc("/projects/weilab/liupeng/banis/torchinductor_liupen/y2/cy2ornnwzmyacetwxurroq6r3nvapvrabnt3adhvsnxt6oia4tqu.py":20:33)
#loc4 = loc("/projects/weilab/liupeng/banis/torchinductor_liupen/y2/cy2ornnwzmyacetwxurroq6r3nvapvrabnt3adhvsnxt6oia4tqu.py":21:36)
#loc5 = loc("/projects/weilab/liupeng/banis/torchinductor_liupen/y2/cy2ornnwzmyacetwxurroq6r3nvapvrabnt3adhvsnxt6oia4tqu.py":21:23)
#loc6 = loc("/projects/weilab/liupeng/banis/torchinductor_liupen/y2/cy2ornnwzmyacetwxurroq6r3nvapvrabnt3adhvsnxt6oia4tqu.py":24:20)
#loc7 = loc("/projects/weilab/liupeng/banis/torchinductor_liupen/y2/cy2ornnwzmyacetwxurroq6r3nvapvrabnt3adhvsnxt6oia4tqu.py":25:34)
#loc8 = loc("/projects/weilab/liupeng/banis/torchinductor_liupen/y2/cy2ornnwzmyacetwxurroq6r3nvapvrabnt3adhvsnxt6oia4tqu.py":25:39)
#loc9 = loc("/projects/weilab/liupeng/banis/torchinductor_liupen/y2/cy2ornnwzmyacetwxurroq6r3nvapvrabnt3adhvsnxt6oia4tqu.py":25:48)
#loc10 = loc("/projects/weilab/liupeng/banis/torchinductor_liupen/y2/cy2ornnwzmyacetwxurroq6r3nvapvrabnt3adhvsnxt6oia4tqu.py":26:30)
#loc11 = loc("/projects/weilab/liupeng/banis/torchinductor_liupen/y2/cy2ornnwzmyacetwxurroq6r3nvapvrabnt3adhvsnxt6oia4tqu.py":26:35)
#loc12 = loc("/projects/weilab/liupeng/banis/torchinductor_liupen/y2/cy2ornnwzmyacetwxurroq6r3nvapvrabnt3adhvsnxt6oia4tqu.py":26:44)
#loc13 = loc("/projects/weilab/liupeng/banis/torchinductor_liupen/y2/cy2ornnwzmyacetwxurroq6r3nvapvrabnt3adhvsnxt6oia4tqu.py":27:30)
#loc14 = loc("/projects/weilab/liupeng/banis/torchinductor_liupen/y2/cy2ornnwzmyacetwxurroq6r3nvapvrabnt3adhvsnxt6oia4tqu.py":27:35)
#loc15 = loc("/projects/weilab/liupeng/banis/torchinductor_liupen/y2/cy2ornnwzmyacetwxurroq6r3nvapvrabnt3adhvsnxt6oia4tqu.py":29:18)
#loc16 = loc("/projects/weilab/liupeng/banis/torchinductor_liupen/y2/cy2ornnwzmyacetwxurroq6r3nvapvrabnt3adhvsnxt6oia4tqu.py":30:18)
#loc17 = loc("/projects/weilab/liupeng/banis/torchinductor_liupen/y2/cy2ornnwzmyacetwxurroq6r3nvapvrabnt3adhvsnxt6oia4tqu.py":31:39)
#loc18 = loc("/projects/weilab/liupeng/banis/torchinductor_liupen/y2/cy2ornnwzmyacetwxurroq6r3nvapvrabnt3adhvsnxt6oia4tqu.py":31:4)
