#loc = loc("/projects/weilab/liupeng/banis/torchinductor_liupen/gn/cgnnyevcatuwdszuephpd4hvsxupplguoq5bnzqqsv3ggggcw3fr.py":18:0)
module {
  tt.func public @triton_(%arg0: !tt.ptr<f16> {tt.divisibility = 16 : i32} loc("/projects/weilab/liupeng/banis/torchinductor_liupen/gn/cgnnyevcatuwdszuephpd4hvsxupplguoq5bnzqqsv3ggggcw3fr.py":18:0), %arg1: !tt.ptr<f32> {tt.divisibility = 16 : i32} loc("/projects/weilab/liupeng/banis/torchinductor_liupen/gn/cgnnyevcatuwdszuephpd4hvsxupplguoq5bnzqqsv3ggggcw3fr.py":18:0), %arg2: !tt.ptr<f32> {tt.divisibility = 16 : i32} loc("/projects/weilab/liupeng/banis/torchinductor_liupen/gn/cgnnyevcatuwdszuephpd4hvsxupplguoq5bnzqqsv3ggggcw3fr.py":18:0), %arg3: !tt.ptr<f32> {tt.divisibility = 16 : i32} loc("/projects/weilab/liupeng/banis/torchinductor_liupen/gn/cgnnyevcatuwdszuephpd4hvsxupplguoq5bnzqqsv3ggggcw3fr.py":18:0), %arg4: !tt.ptr<f32> {tt.divisibility = 16 : i32} loc("/projects/weilab/liupeng/banis/torchinductor_liupen/gn/cgnnyevcatuwdszuephpd4hvsxupplguoq5bnzqqsv3ggggcw3fr.py":18:0), %arg5: !tt.ptr<f32> {tt.divisibility = 16 : i32} loc("/projects/weilab/liupeng/banis/torchinductor_liupen/gn/cgnnyevcatuwdszuephpd4hvsxupplguoq5bnzqqsv3ggggcw3fr.py":18:0), %arg6: i32 {tt.divisibility = 16 : i32} loc("/projects/weilab/liupeng/banis/torchinductor_liupen/gn/cgnnyevcatuwdszuephpd4hvsxupplguoq5bnzqqsv3ggggcw3fr.py":18:0)) attributes {noinline = false} {
    %cst = arith.constant dense<9.99999974E-6> : tensor<1024xf32> loc(#loc1)
    %cst_0 = arith.constant dense<0x4A000000> : tensor<1024xf32> loc(#loc1)
    %cst_1 = arith.constant dense<2097152> : tensor<1024xi32> loc(#loc1)
    %c1024_i32 = arith.constant 1024 : i32 loc(#loc1)
    %0 = tt.get_program_id x : i32 loc(#loc2)
    %1 = arith.muli %0, %c1024_i32 : i32 loc(#loc3)
    %2 = tt.make_range {end = 1024 : i32, start = 0 : i32} : tensor<1024xi32> loc(#loc4)
    %3 = tt.splat %1 : i32 -> tensor<1024xi32> loc(#loc5)
    %4 = arith.addi %3, %2 : tensor<1024xi32> loc(#loc5)
    %5 = arith.divsi %4, %cst_1 : tensor<1024xi32> loc(#loc6)
    %6 = tt.splat %arg0 : !tt.ptr<f16> -> tensor<1024x!tt.ptr<f16>> loc(#loc7)
    %7 = tt.addptr %6, %4 : tensor<1024x!tt.ptr<f16>>, tensor<1024xi32> loc(#loc7)
    %8 = tt.load %7 : tensor<1024x!tt.ptr<f16>> loc(#loc8)
    %9 = arith.extf %8 : tensor<1024xf16> to tensor<1024xf32> loc(#loc9)
    %10 = tt.splat %arg1 : !tt.ptr<f32> -> tensor<1024x!tt.ptr<f32>> loc(#loc10)
    %11 = tt.addptr %10, %5 : tensor<1024x!tt.ptr<f32>>, tensor<1024xi32> loc(#loc10)
    %12 = tt.load %11 evictionPolicy = evict_last : tensor<1024x!tt.ptr<f32>> loc(#loc11)
    %13 = tt.splat %arg2 : !tt.ptr<f32> -> tensor<1024x!tt.ptr<f32>> loc(#loc12)
    %14 = tt.addptr %13, %5 : tensor<1024x!tt.ptr<f32>>, tensor<1024xi32> loc(#loc12)
    %15 = tt.load %14 evictionPolicy = evict_last : tensor<1024x!tt.ptr<f32>> loc(#loc13)
    %16 = tt.splat %arg3 : !tt.ptr<f32> -> tensor<1024x!tt.ptr<f32>> loc(#loc14)
    %17 = tt.addptr %16, %5 : tensor<1024x!tt.ptr<f32>>, tensor<1024xi32> loc(#loc14)
    %18 = tt.load %17 evictionPolicy = evict_last : tensor<1024x!tt.ptr<f32>> loc(#loc15)
    %19 = tt.splat %arg4 : !tt.ptr<f32> -> tensor<1024x!tt.ptr<f32>> loc(#loc16)
    %20 = tt.addptr %19, %5 : tensor<1024x!tt.ptr<f32>>, tensor<1024xi32> loc(#loc16)
    %21 = tt.load %20 evictionPolicy = evict_last : tensor<1024x!tt.ptr<f32>> loc(#loc17)
    %22 = tt.splat %arg5 : !tt.ptr<f32> -> tensor<1024x!tt.ptr<f32>> loc(#loc18)
    %23 = tt.addptr %22, %5 : tensor<1024x!tt.ptr<f32>>, tensor<1024xi32> loc(#loc18)
    %24 = tt.load %23 evictionPolicy = evict_last : tensor<1024x!tt.ptr<f32>> loc(#loc19)
    %25 = arith.addf %9, %12 : tensor<1024xf32> loc(#loc20)
    %26 = arith.subf %25, %15 : tensor<1024xf32> loc(#loc21)
    %27 = arith.divf %18, %cst_0 : tensor<1024xf32> loc(#loc22)
    %28 = arith.addf %27, %cst : tensor<1024xf32> loc(#loc23)
    %29 = tt.extern_elementwise %28 {libname = "", libpath = "", pure = true, symbol = "__nv_rsqrtf"} : (tensor<1024xf32>) -> tensor<1024xf32> loc(#loc24)
    %30 = arith.mulf %26, %29 : tensor<1024xf32> loc(#loc25)
    %31 = arith.mulf %30, %21 : tensor<1024xf32> loc(#loc26)
    %32 = arith.addf %31, %24 : tensor<1024xf32> loc(#loc27)
    %33 = arith.truncf %32 : tensor<1024xf32> to tensor<1024xf16> loc(#loc28)
    tt.store %7, %33 : tensor<1024x!tt.ptr<f16>> loc(#loc28)
    tt.return loc(#loc29)
  } loc(#loc)
} loc(#loc)
#loc1 = loc(unknown)
#loc2 = loc("/projects/weilab/liupeng/banis/torchinductor_liupen/gn/cgnnyevcatuwdszuephpd4hvsxupplguoq5bnzqqsv3ggggcw3fr.py":20:28)
#loc3 = loc("/projects/weilab/liupeng/banis/torchinductor_liupen/gn/cgnnyevcatuwdszuephpd4hvsxupplguoq5bnzqqsv3ggggcw3fr.py":20:33)
#loc4 = loc("/projects/weilab/liupeng/banis/torchinductor_liupen/gn/cgnnyevcatuwdszuephpd4hvsxupplguoq5bnzqqsv3ggggcw3fr.py":21:36)
#loc5 = loc("/projects/weilab/liupeng/banis/torchinductor_liupen/gn/cgnnyevcatuwdszuephpd4hvsxupplguoq5bnzqqsv3ggggcw3fr.py":21:23)
#loc6 = loc("/projects/weilab/liupeng/banis/torchinductor_liupen/gn/cgnnyevcatuwdszuephpd4hvsxupplguoq5bnzqqsv3ggggcw3fr.py":24:20)
#loc7 = loc("/projects/weilab/liupeng/banis/torchinductor_liupen/gn/cgnnyevcatuwdszuephpd4hvsxupplguoq5bnzqqsv3ggggcw3fr.py":25:34)
#loc8 = loc("/projects/weilab/liupeng/banis/torchinductor_liupen/gn/cgnnyevcatuwdszuephpd4hvsxupplguoq5bnzqqsv3ggggcw3fr.py":25:39)
#loc9 = loc("/projects/weilab/liupeng/banis/torchinductor_liupen/gn/cgnnyevcatuwdszuephpd4hvsxupplguoq5bnzqqsv3ggggcw3fr.py":25:48)
#loc10 = loc("/projects/weilab/liupeng/banis/torchinductor_liupen/gn/cgnnyevcatuwdszuephpd4hvsxupplguoq5bnzqqsv3ggggcw3fr.py":26:30)
#loc11 = loc("/projects/weilab/liupeng/banis/torchinductor_liupen/gn/cgnnyevcatuwdszuephpd4hvsxupplguoq5bnzqqsv3ggggcw3fr.py":26:35)
#loc12 = loc("/projects/weilab/liupeng/banis/torchinductor_liupen/gn/cgnnyevcatuwdszuephpd4hvsxupplguoq5bnzqqsv3ggggcw3fr.py":27:30)
#loc13 = loc("/projects/weilab/liupeng/banis/torchinductor_liupen/gn/cgnnyevcatuwdszuephpd4hvsxupplguoq5bnzqqsv3ggggcw3fr.py":27:35)
#loc14 = loc("/projects/weilab/liupeng/banis/torchinductor_liupen/gn/cgnnyevcatuwdszuephpd4hvsxupplguoq5bnzqqsv3ggggcw3fr.py":28:30)
#loc15 = loc("/projects/weilab/liupeng/banis/torchinductor_liupen/gn/cgnnyevcatuwdszuephpd4hvsxupplguoq5bnzqqsv3ggggcw3fr.py":28:35)
#loc16 = loc("/projects/weilab/liupeng/banis/torchinductor_liupen/gn/cgnnyevcatuwdszuephpd4hvsxupplguoq5bnzqqsv3ggggcw3fr.py":29:31)
#loc17 = loc("/projects/weilab/liupeng/banis/torchinductor_liupen/gn/cgnnyevcatuwdszuephpd4hvsxupplguoq5bnzqqsv3ggggcw3fr.py":29:36)
#loc18 = loc("/projects/weilab/liupeng/banis/torchinductor_liupen/gn/cgnnyevcatuwdszuephpd4hvsxupplguoq5bnzqqsv3ggggcw3fr.py":30:31)
#loc19 = loc("/projects/weilab/liupeng/banis/torchinductor_liupen/gn/cgnnyevcatuwdszuephpd4hvsxupplguoq5bnzqqsv3ggggcw3fr.py":30:36)
#loc20 = loc("/projects/weilab/liupeng/banis/torchinductor_liupen/gn/cgnnyevcatuwdszuephpd4hvsxupplguoq5bnzqqsv3ggggcw3fr.py":32:18)
#loc21 = loc("/projects/weilab/liupeng/banis/torchinductor_liupen/gn/cgnnyevcatuwdszuephpd4hvsxupplguoq5bnzqqsv3ggggcw3fr.py":34:18)
#loc22 = loc("/projects/weilab/liupeng/banis/torchinductor_liupen/gn/cgnnyevcatuwdszuephpd4hvsxupplguoq5bnzqqsv3ggggcw3fr.py":36:18)
#loc23 = loc("/projects/weilab/liupeng/banis/torchinductor_liupen/gn/cgnnyevcatuwdszuephpd4hvsxupplguoq5bnzqqsv3ggggcw3fr.py":38:19)
#loc24 = loc("/projects/weilab/liupeng/banis/torchinductor_liupen/gn/cgnnyevcatuwdszuephpd4hvsxupplguoq5bnzqqsv3ggggcw3fr.py":39:28)
#loc25 = loc("/projects/weilab/liupeng/banis/torchinductor_liupen/gn/cgnnyevcatuwdszuephpd4hvsxupplguoq5bnzqqsv3ggggcw3fr.py":40:19)
#loc26 = loc("/projects/weilab/liupeng/banis/torchinductor_liupen/gn/cgnnyevcatuwdszuephpd4hvsxupplguoq5bnzqqsv3ggggcw3fr.py":41:20)
#loc27 = loc("/projects/weilab/liupeng/banis/torchinductor_liupen/gn/cgnnyevcatuwdszuephpd4hvsxupplguoq5bnzqqsv3ggggcw3fr.py":42:20)
#loc28 = loc("/projects/weilab/liupeng/banis/torchinductor_liupen/gn/cgnnyevcatuwdszuephpd4hvsxupplguoq5bnzqqsv3ggggcw3fr.py":44:40)
#loc29 = loc("/projects/weilab/liupeng/banis/torchinductor_liupen/gn/cgnnyevcatuwdszuephpd4hvsxupplguoq5bnzqqsv3ggggcw3fr.py":44:4)
