#loc = loc("/projects/weilab/liupeng/banis/torchinductor_liupen/mb/cmba236gf6yhihsxunvojvne5goxhcgmjdo3zjhxrfgvf6zhfa6t.py":18:0)
module {
  tt.func public @triton_(%arg0: !tt.ptr<f16> {tt.divisibility = 16 : i32} loc("/projects/weilab/liupeng/banis/torchinductor_liupen/mb/cmba236gf6yhihsxunvojvne5goxhcgmjdo3zjhxrfgvf6zhfa6t.py":18:0), %arg1: !tt.ptr<f32> {tt.divisibility = 16 : i32} loc("/projects/weilab/liupeng/banis/torchinductor_liupen/mb/cmba236gf6yhihsxunvojvne5goxhcgmjdo3zjhxrfgvf6zhfa6t.py":18:0), %arg2: !tt.ptr<f16> {tt.divisibility = 16 : i32} loc("/projects/weilab/liupeng/banis/torchinductor_liupen/mb/cmba236gf6yhihsxunvojvne5goxhcgmjdo3zjhxrfgvf6zhfa6t.py":18:0), %arg3: i32 {tt.divisibility = 16 : i32} loc("/projects/weilab/liupeng/banis/torchinductor_liupen/mb/cmba236gf6yhihsxunvojvne5goxhcgmjdo3zjhxrfgvf6zhfa6t.py":18:0), %arg4: i32 {tt.divisibility = 16 : i32} loc("/projects/weilab/liupeng/banis/torchinductor_liupen/mb/cmba236gf6yhihsxunvojvne5goxhcgmjdo3zjhxrfgvf6zhfa6t.py":18:0)) attributes {noinline = false} {
    %c2097152_i32 = arith.constant 2097152 : i32 loc(#loc1)
    %c32_i32 = arith.constant 32 : i32 loc(#loc1)
    %cst = arith.constant dense<32> : tensor<1024x1xi32> loc(#loc1)
    %c1024_i32 = arith.constant 1024 : i32 loc(#loc1)
    %0 = tt.get_program_id y : i32 loc(#loc2)
    %1 = tt.get_program_id z : i32 loc(#loc3)
    %2 = tt.get_num_programs y : i32 loc(#loc4)
    %3 = arith.muli %1, %2 : i32 loc(#loc5)
    %4 = arith.addi %0, %3 : i32 loc(#loc6)
    %5 = arith.cmpi slt, %4, %c32_i32 : i32 loc(#loc7)
    %6 = tt.splat %5 : i1 -> tensor<1x1xi1> loc(#loc7)
    %7 = tt.get_program_id x : i32 loc(#loc8)
    %8 = arith.muli %7, %c1024_i32 : i32 loc(#loc9)
    %9 = tt.make_range {end = 1024 : i32, start = 0 : i32} : tensor<1024xi32> loc(#loc10)
    %10 = tt.expand_dims %9 {axis = 1 : i32} : tensor<1024xi32> -> tensor<1024x1xi32> loc(#loc11)
    %11 = tt.splat %8 : i32 -> tensor<1024x1xi32> loc(#loc12)
    %12 = arith.addi %11, %10 : tensor<1024x1xi32> loc(#loc12)
    %13 = arith.muli %12, %cst : tensor<1024x1xi32> loc(#loc13)
    %14 = tt.splat %4 : i32 -> tensor<1024x1xi32> loc(#loc14)
    %15 = arith.addi %14, %13 : tensor<1024x1xi32> loc(#loc14)
    %16 = tt.splat %arg0 : !tt.ptr<f16> -> tensor<1024x1x!tt.ptr<f16>> loc(#loc15)
    %17 = tt.addptr %16, %15 : tensor<1024x1x!tt.ptr<f16>>, tensor<1024x1xi32> loc(#loc15)
    %18 = tt.splat %5 : i1 -> tensor<1024x1xi1> loc(#loc16)
    %19 = tt.load %17, %18 evictionPolicy = evict_last : tensor<1024x1x!tt.ptr<f16>> loc(#loc16)
    %20 = arith.extf %19 : tensor<1024x1xf16> to tensor<1024x1xf32> loc(#loc17)
    %21 = tt.addptr %arg1, %4 : !tt.ptr<f32>, i32 loc(#loc18)
    %22 = tt.splat %21 : !tt.ptr<f32> -> tensor<1x1x!tt.ptr<f32>> loc(#loc18)
    %23 = tt.load %22, %6 evictionPolicy = evict_last : tensor<1x1x!tt.ptr<f32>> loc(#loc19)
    %24 = tt.broadcast %23 : tensor<1x1xf32> -> tensor<1024x1xf32> loc(#loc20)
    %25 = arith.addf %20, %24 : tensor<1024x1xf32> loc(#loc20)
    %26 = arith.muli %4, %c2097152_i32 : i32 loc(#loc21)
    %27 = tt.splat %26 : i32 -> tensor<1024x1xi32> loc(#loc22)
    %28 = arith.addi %12, %27 : tensor<1024x1xi32> loc(#loc22)
    %29 = tt.splat %arg2 : !tt.ptr<f16> -> tensor<1024x1x!tt.ptr<f16>> loc(#loc23)
    %30 = tt.addptr %29, %28 : tensor<1024x1x!tt.ptr<f16>>, tensor<1024x1xi32> loc(#loc23)
    %31 = arith.truncf %25 : tensor<1024x1xf32> to tensor<1024x1xf16> loc(#loc24)
    tt.store %30, %31, %18 : tensor<1024x1x!tt.ptr<f16>> loc(#loc24)
    tt.return loc(#loc25)
  } loc(#loc)
} loc(#loc)
#loc1 = loc(unknown)
#loc2 = loc("/projects/weilab/liupeng/banis/torchinductor_liupen/mb/cmba236gf6yhihsxunvojvne5goxhcgmjdo3zjhxrfgvf6zhfa6t.py":21:29)
#loc3 = loc("/projects/weilab/liupeng/banis/torchinductor_liupen/mb/cmba236gf6yhihsxunvojvne5goxhcgmjdo3zjhxrfgvf6zhfa6t.py":21:48)
#loc4 = loc("/projects/weilab/liupeng/banis/torchinductor_liupen/mb/cmba236gf6yhihsxunvojvne5goxhcgmjdo3zjhxrfgvf6zhfa6t.py":21:69)
#loc5 = loc("/projects/weilab/liupeng/banis/torchinductor_liupen/mb/cmba236gf6yhihsxunvojvne5goxhcgmjdo3zjhxrfgvf6zhfa6t.py":21:53)
#loc6 = loc("/projects/weilab/liupeng/banis/torchinductor_liupen/mb/cmba236gf6yhihsxunvojvne5goxhcgmjdo3zjhxrfgvf6zhfa6t.py":21:34)
#loc7 = loc("/projects/weilab/liupeng/banis/torchinductor_liupen/mb/cmba236gf6yhihsxunvojvne5goxhcgmjdo3zjhxrfgvf6zhfa6t.py":23:21)
#loc8 = loc("/projects/weilab/liupeng/banis/torchinductor_liupen/mb/cmba236gf6yhihsxunvojvne5goxhcgmjdo3zjhxrfgvf6zhfa6t.py":24:28)
#loc9 = loc("/projects/weilab/liupeng/banis/torchinductor_liupen/mb/cmba236gf6yhihsxunvojvne5goxhcgmjdo3zjhxrfgvf6zhfa6t.py":24:33)
#loc10 = loc("/projects/weilab/liupeng/banis/torchinductor_liupen/mb/cmba236gf6yhihsxunvojvne5goxhcgmjdo3zjhxrfgvf6zhfa6t.py":25:36)
#loc11 = loc("/projects/weilab/liupeng/banis/torchinductor_liupen/mb/cmba236gf6yhihsxunvojvne5goxhcgmjdo3zjhxrfgvf6zhfa6t.py":25:44)
#loc12 = loc("/projects/weilab/liupeng/banis/torchinductor_liupen/mb/cmba236gf6yhihsxunvojvne5goxhcgmjdo3zjhxrfgvf6zhfa6t.py":25:23)
#loc13 = loc("/projects/weilab/liupeng/banis/torchinductor_liupen/mb/cmba236gf6yhihsxunvojvne5goxhcgmjdo3zjhxrfgvf6zhfa6t.py":29:39)
#loc14 = loc("/projects/weilab/liupeng/banis/torchinductor_liupen/mb/cmba236gf6yhihsxunvojvne5goxhcgmjdo3zjhxrfgvf6zhfa6t.py":29:36)
#loc15 = loc("/projects/weilab/liupeng/banis/torchinductor_liupen/mb/cmba236gf6yhihsxunvojvne5goxhcgmjdo3zjhxrfgvf6zhfa6t.py":29:30)
#loc16 = loc("/projects/weilab/liupeng/banis/torchinductor_liupen/mb/cmba236gf6yhihsxunvojvne5goxhcgmjdo3zjhxrfgvf6zhfa6t.py":29:45)
#loc17 = loc("/projects/weilab/liupeng/banis/torchinductor_liupen/mb/cmba236gf6yhihsxunvojvne5goxhcgmjdo3zjhxrfgvf6zhfa6t.py":29:85)
#loc18 = loc("/projects/weilab/liupeng/banis/torchinductor_liupen/mb/cmba236gf6yhihsxunvojvne5goxhcgmjdo3zjhxrfgvf6zhfa6t.py":30:30)
#loc19 = loc("/projects/weilab/liupeng/banis/torchinductor_liupen/mb/cmba236gf6yhihsxunvojvne5goxhcgmjdo3zjhxrfgvf6zhfa6t.py":30:35)
#loc20 = loc("/projects/weilab/liupeng/banis/torchinductor_liupen/mb/cmba236gf6yhihsxunvojvne5goxhcgmjdo3zjhxrfgvf6zhfa6t.py":32:18)
#loc21 = loc("/projects/weilab/liupeng/banis/torchinductor_liupen/mb/cmba236gf6yhihsxunvojvne5goxhcgmjdo3zjhxrfgvf6zhfa6t.py":33:39)
#loc22 = loc("/projects/weilab/liupeng/banis/torchinductor_liupen/mb/cmba236gf6yhihsxunvojvne5goxhcgmjdo3zjhxrfgvf6zhfa6t.py":33:31)
#loc23 = loc("/projects/weilab/liupeng/banis/torchinductor_liupen/mb/cmba236gf6yhihsxunvojvne5goxhcgmjdo3zjhxrfgvf6zhfa6t.py":33:25)
#loc24 = loc("/projects/weilab/liupeng/banis/torchinductor_liupen/mb/cmba236gf6yhihsxunvojvne5goxhcgmjdo3zjhxrfgvf6zhfa6t.py":33:51)
#loc25 = loc("/projects/weilab/liupeng/banis/torchinductor_liupen/mb/cmba236gf6yhihsxunvojvne5goxhcgmjdo3zjhxrfgvf6zhfa6t.py":33:4)
