#loc = loc("/projects/weilab/liupeng/banis/torchinductor_liupen/mb/cmba236gf6yhihsxunvojvne5goxhcgmjdo3zjhxrfgvf6zhfa6t.py":18:0)
module {
  tt.func public @triton_(%arg0: !tt.ptr<f16> {tt.divisibility = 16 : i32} loc("/projects/weilab/liupeng/banis/torchinductor_liupen/mb/cmba236gf6yhihsxunvojvne5goxhcgmjdo3zjhxrfgvf6zhfa6t.py":18:0), %arg1: !tt.ptr<f32> {tt.divisibility = 16 : i32} loc("/projects/weilab/liupeng/banis/torchinductor_liupen/mb/cmba236gf6yhihsxunvojvne5goxhcgmjdo3zjhxrfgvf6zhfa6t.py":18:0), %arg2: !tt.ptr<f16> {tt.divisibility = 16 : i32} loc("/projects/weilab/liupeng/banis/torchinductor_liupen/mb/cmba236gf6yhihsxunvojvne5goxhcgmjdo3zjhxrfgvf6zhfa6t.py":18:0), %arg3: i32 {tt.divisibility = 16 : i32} loc("/projects/weilab/liupeng/banis/torchinductor_liupen/mb/cmba236gf6yhihsxunvojvne5goxhcgmjdo3zjhxrfgvf6zhfa6t.py":18:0), %arg4: i32 {tt.divisibility = 16 : i32} loc("/projects/weilab/liupeng/banis/torchinductor_liupen/mb/cmba236gf6yhihsxunvojvne5goxhcgmjdo3zjhxrfgvf6zhfa6t.py":18:0)) attributes {noinline = false} {
    %cst = arith.constant dense<2097152> : tensor<1x32xi32> loc(#loc1)
    %cst_0 = arith.constant dense<32> : tensor<128x1xi32> loc(#loc1)
    %c128_i32 = arith.constant 128 : i32 loc(#loc1)
    %cst_1 = arith.constant dense<32> : tensor<1x32xi32> loc(#loc1)
    %c32_i32 = arith.constant 32 : i32 loc(#loc1)
    %0 = tt.get_program_id y : i32 loc(#loc2)
    %1 = tt.get_program_id z : i32 loc(#loc3)
    %2 = tt.get_num_programs y : i32 loc(#loc4)
    %3 = arith.muli %1, %2 : i32 loc(#loc5)
    %4 = arith.addi %0, %3 : i32 loc(#loc6)
    %5 = arith.muli %4, %c32_i32 : i32 loc(#loc7)
    %6 = tt.make_range {end = 32 : i32, start = 0 : i32} : tensor<32xi32> loc(#loc8)
    %7 = tt.expand_dims %6 {axis = 0 : i32} : tensor<32xi32> -> tensor<1x32xi32> loc(#loc9)
    %8 = tt.splat %5 : i32 -> tensor<1x32xi32> loc(#loc10)
    %9 = arith.addi %8, %7 : tensor<1x32xi32> loc(#loc10)
    %10 = arith.cmpi slt, %9, %cst_1 : tensor<1x32xi32> loc(#loc11)
    %11 = tt.get_program_id x : i32 loc(#loc12)
    %12 = arith.muli %11, %c128_i32 : i32 loc(#loc13)
    %13 = tt.make_range {end = 128 : i32, start = 0 : i32} : tensor<128xi32> loc(#loc14)
    %14 = tt.expand_dims %13 {axis = 1 : i32} : tensor<128xi32> -> tensor<128x1xi32> loc(#loc15)
    %15 = tt.splat %12 : i32 -> tensor<128x1xi32> loc(#loc16)
    %16 = arith.addi %15, %14 : tensor<128x1xi32> loc(#loc16)
    %17 = arith.muli %16, %cst_0 : tensor<128x1xi32> loc(#loc17)
    %18 = tt.broadcast %9 : tensor<1x32xi32> -> tensor<128x32xi32> loc(#loc18)
    %19 = tt.broadcast %17 : tensor<128x1xi32> -> tensor<128x32xi32> loc(#loc18)
    %20 = arith.addi %18, %19 : tensor<128x32xi32> loc(#loc18)
    %21 = tt.splat %arg0 : !tt.ptr<f16> -> tensor<128x32x!tt.ptr<f16>> loc(#loc19)
    %22 = tt.addptr %21, %20 : tensor<128x32x!tt.ptr<f16>>, tensor<128x32xi32> loc(#loc19)
    %23 = tt.broadcast %10 : tensor<1x32xi1> -> tensor<128x32xi1> loc(#loc20)
    %24 = tt.load %22, %23 evictionPolicy = evict_last : tensor<128x32x!tt.ptr<f16>> loc(#loc20)
    %25 = arith.extf %24 : tensor<128x32xf16> to tensor<128x32xf32> loc(#loc21)
    %26 = tt.splat %arg1 : !tt.ptr<f32> -> tensor<1x32x!tt.ptr<f32>> loc(#loc22)
    %27 = tt.addptr %26, %9 : tensor<1x32x!tt.ptr<f32>>, tensor<1x32xi32> loc(#loc22)
    %28 = tt.load %27, %10 evictionPolicy = evict_last : tensor<1x32x!tt.ptr<f32>> loc(#loc23)
    %29 = tt.broadcast %28 : tensor<1x32xf32> -> tensor<128x32xf32> loc(#loc24)
    %30 = arith.addf %25, %29 : tensor<128x32xf32> loc(#loc24)
    %31 = arith.muli %9, %cst : tensor<1x32xi32> loc(#loc25)
    %32 = tt.broadcast %16 : tensor<128x1xi32> -> tensor<128x32xi32> loc(#loc26)
    %33 = tt.broadcast %31 : tensor<1x32xi32> -> tensor<128x32xi32> loc(#loc26)
    %34 = arith.addi %32, %33 : tensor<128x32xi32> loc(#loc26)
    %35 = tt.splat %arg2 : !tt.ptr<f16> -> tensor<128x32x!tt.ptr<f16>> loc(#loc27)
    %36 = tt.addptr %35, %34 : tensor<128x32x!tt.ptr<f16>>, tensor<128x32xi32> loc(#loc27)
    %37 = arith.truncf %30 : tensor<128x32xf32> to tensor<128x32xf16> loc(#loc28)
    tt.store %36, %37, %23 : tensor<128x32x!tt.ptr<f16>> loc(#loc28)
    tt.return loc(#loc29)
  } loc(#loc)
} loc(#loc)
#loc1 = loc(unknown)
#loc2 = loc("/projects/weilab/liupeng/banis/torchinductor_liupen/mb/cmba236gf6yhihsxunvojvne5goxhcgmjdo3zjhxrfgvf6zhfa6t.py":21:29)
#loc3 = loc("/projects/weilab/liupeng/banis/torchinductor_liupen/mb/cmba236gf6yhihsxunvojvne5goxhcgmjdo3zjhxrfgvf6zhfa6t.py":21:48)
#loc4 = loc("/projects/weilab/liupeng/banis/torchinductor_liupen/mb/cmba236gf6yhihsxunvojvne5goxhcgmjdo3zjhxrfgvf6zhfa6t.py":21:69)
#loc5 = loc("/projects/weilab/liupeng/banis/torchinductor_liupen/mb/cmba236gf6yhihsxunvojvne5goxhcgmjdo3zjhxrfgvf6zhfa6t.py":21:53)
#loc6 = loc("/projects/weilab/liupeng/banis/torchinductor_liupen/mb/cmba236gf6yhihsxunvojvne5goxhcgmjdo3zjhxrfgvf6zhfa6t.py":21:34)
#loc7 = loc("/projects/weilab/liupeng/banis/torchinductor_liupen/mb/cmba236gf6yhihsxunvojvne5goxhcgmjdo3zjhxrfgvf6zhfa6t.py":21:75)
#loc8 = loc("/projects/weilab/liupeng/banis/torchinductor_liupen/mb/cmba236gf6yhihsxunvojvne5goxhcgmjdo3zjhxrfgvf6zhfa6t.py":22:36)
#loc9 = loc("/projects/weilab/liupeng/banis/torchinductor_liupen/mb/cmba236gf6yhihsxunvojvne5goxhcgmjdo3zjhxrfgvf6zhfa6t.py":22:44)
#loc10 = loc("/projects/weilab/liupeng/banis/torchinductor_liupen/mb/cmba236gf6yhihsxunvojvne5goxhcgmjdo3zjhxrfgvf6zhfa6t.py":22:23)
#loc11 = loc("/projects/weilab/liupeng/banis/torchinductor_liupen/mb/cmba236gf6yhihsxunvojvne5goxhcgmjdo3zjhxrfgvf6zhfa6t.py":23:21)
#loc12 = loc("/projects/weilab/liupeng/banis/torchinductor_liupen/mb/cmba236gf6yhihsxunvojvne5goxhcgmjdo3zjhxrfgvf6zhfa6t.py":24:28)
#loc13 = loc("/projects/weilab/liupeng/banis/torchinductor_liupen/mb/cmba236gf6yhihsxunvojvne5goxhcgmjdo3zjhxrfgvf6zhfa6t.py":24:33)
#loc14 = loc("/projects/weilab/liupeng/banis/torchinductor_liupen/mb/cmba236gf6yhihsxunvojvne5goxhcgmjdo3zjhxrfgvf6zhfa6t.py":25:36)
#loc15 = loc("/projects/weilab/liupeng/banis/torchinductor_liupen/mb/cmba236gf6yhihsxunvojvne5goxhcgmjdo3zjhxrfgvf6zhfa6t.py":25:44)
#loc16 = loc("/projects/weilab/liupeng/banis/torchinductor_liupen/mb/cmba236gf6yhihsxunvojvne5goxhcgmjdo3zjhxrfgvf6zhfa6t.py":25:23)
#loc17 = loc("/projects/weilab/liupeng/banis/torchinductor_liupen/mb/cmba236gf6yhihsxunvojvne5goxhcgmjdo3zjhxrfgvf6zhfa6t.py":29:39)
#loc18 = loc("/projects/weilab/liupeng/banis/torchinductor_liupen/mb/cmba236gf6yhihsxunvojvne5goxhcgmjdo3zjhxrfgvf6zhfa6t.py":29:36)
#loc19 = loc("/projects/weilab/liupeng/banis/torchinductor_liupen/mb/cmba236gf6yhihsxunvojvne5goxhcgmjdo3zjhxrfgvf6zhfa6t.py":29:30)
#loc20 = loc("/projects/weilab/liupeng/banis/torchinductor_liupen/mb/cmba236gf6yhihsxunvojvne5goxhcgmjdo3zjhxrfgvf6zhfa6t.py":29:45)
#loc21 = loc("/projects/weilab/liupeng/banis/torchinductor_liupen/mb/cmba236gf6yhihsxunvojvne5goxhcgmjdo3zjhxrfgvf6zhfa6t.py":29:85)
#loc22 = loc("/projects/weilab/liupeng/banis/torchinductor_liupen/mb/cmba236gf6yhihsxunvojvne5goxhcgmjdo3zjhxrfgvf6zhfa6t.py":30:30)
#loc23 = loc("/projects/weilab/liupeng/banis/torchinductor_liupen/mb/cmba236gf6yhihsxunvojvne5goxhcgmjdo3zjhxrfgvf6zhfa6t.py":30:35)
#loc24 = loc("/projects/weilab/liupeng/banis/torchinductor_liupen/mb/cmba236gf6yhihsxunvojvne5goxhcgmjdo3zjhxrfgvf6zhfa6t.py":32:18)
#loc25 = loc("/projects/weilab/liupeng/banis/torchinductor_liupen/mb/cmba236gf6yhihsxunvojvne5goxhcgmjdo3zjhxrfgvf6zhfa6t.py":33:39)
#loc26 = loc("/projects/weilab/liupeng/banis/torchinductor_liupen/mb/cmba236gf6yhihsxunvojvne5goxhcgmjdo3zjhxrfgvf6zhfa6t.py":33:31)
#loc27 = loc("/projects/weilab/liupeng/banis/torchinductor_liupen/mb/cmba236gf6yhihsxunvojvne5goxhcgmjdo3zjhxrfgvf6zhfa6t.py":33:25)
#loc28 = loc("/projects/weilab/liupeng/banis/torchinductor_liupen/mb/cmba236gf6yhihsxunvojvne5goxhcgmjdo3zjhxrfgvf6zhfa6t.py":33:51)
#loc29 = loc("/projects/weilab/liupeng/banis/torchinductor_liupen/mb/cmba236gf6yhihsxunvojvne5goxhcgmjdo3zjhxrfgvf6zhfa6t.py":33:4)
